…
          (bn2): SparseBatchNorm2d(512, eps=1e-05, momentum=0.1, affine=True, track_running_stats=True)
          (act2): ReLU(inplace=True)
          (conv3): SparseConv2d(512, 2048, kernel_size=(1, 1), stride=(1, 1), bias=False)
          (bn3): SparseBatchNorm2d(2048, eps=1e-05, momentum=0.1, affine=True, track_running_stats=True)
          (act3): ReLU(inplace=True)
          (drop_path): DropPath(drop_prob=0.05, scale_by_keep=True)
        )
      )
      (global_pool): SelectAdaptivePool2d (pool_type=, flatten=Identity())
      (fc): Identity()
    )
  )
  (dense_decoder): LightDecoder(
    width=768
    (dec): ModuleList(
      (0): UNetBlock(
        (up_sample): ConvTranspose2d(768, 768, kernel_size=(4, 4), stride=(2, 2), padding=(1, 1))
        (conv): Sequential(
          (0): Conv2d(768, 768, kernel_size=(3, 3), stride=(1, 1), padding=(1, 1), bias=False)
          (1): BatchNorm2d(768, eps=1e-05, momentum=0.1, affine=True, track_running_stats=True)
          (2): ReLU6(inplace=True)
          (3): Conv2d(768, 384, kernel_size=(3, 3), stride=(1, 1), padding=(1, 1), bias=False)
          (4): BatchNorm2d(384, eps=1e-05, momentum=0.1, affine=True, track_running_stats=True)
        )
      )
      (1): UNetBlock(
        (up_sample): ConvTranspose2d(384, 384, kernel_size=(4, 4), stride=(2, 2), padding=(1, 1))
        (conv): Sequential(
          (0): Conv2d(384, 384, kernel_size=(3, 3), stride=(1, 1), padding=(1, 1), bias=False)
          (1): BatchNorm2d(384, eps=1e-05, momentum=0.1, affine=True, track_running_stats=True)
          (2): ReLU6(inplace=True)
          (3): Conv2d(384, 192, kernel_size=(3, 3), stride=(1, 1), padding=(1, 1), bias=False)
          (4): BatchNorm2d(192, eps=1e-05, momentum=0.1, affine=True, track_running_stats=True)
        )
      )
      (2): UNetBlock(
        (up_sample): ConvTranspose2d(192, 192, kernel_size=(4, 4), stride=(2, 2), padding=(1, 1))
        (conv): Sequential(
          (0): Conv2d(192, 192, kernel_size=(3, 3), stride=(1, 1), padding=(1, 1), bias=False)
          (1): BatchNorm2d(192, eps=1e-05, momentum=0.1, affine=True, track_running_stats=True)
          (2): ReLU6(inplace=True)
          (3): Conv2d(192, 96, kernel_size=(3, 3), stride=(1, 1), padding=(1, 1), bias=False)
          (4): BatchNorm2d(96, eps=1e-05, momentum=0.1, affine=True, track_running_stats=True)
        )
      )
      (3): UNetBlock(
        (up_sample): ConvTranspose2d(96, 96, kernel_size=(4, 4), stride=(2, 2), padding=(1, 1))
        (conv): Sequential(
          (0): Conv2d(96, 96, kernel_size=(3, 3), stride=(1, 1), padding=(1, 1), bias=False)
          (1): BatchNorm2d(96, eps=1e-05, momentum=0.1, affine=True, track_running_stats=True)
          (2): ReLU6(inplace=True)
          (3): Conv2d(96, 48, kernel_size=(3, 3), stride=(1, 1), padding=(1, 1), bias=False)
          (4): BatchNorm2d(48, eps=1e-05, momentum=0.1, affine=True, track_running_stats=True)
        )
      )
      (4): UNetBlock(
        (up_sample): ConvTranspose2d(48, 48, kernel_size=(4, 4), stride=(2, 2), padding=(1, 1))
        (conv): Sequential(
          (0): Conv2d(48, 48, kernel_size=(3, 3), stride=(1, 1), padding=(1, 1), bias=False)
          (1): BatchNorm2d(48, eps=1e-05, momentum=0.1, affine=True, track_running_stats=True)
          (2): ReLU6(inplace=True)
          (3): Conv2d(48, 24, kernel_size=(3, 3), stride=(1, 1), padding=(1, 1), bias=False)
          (4): BatchNorm2d(24, eps=1e-05, momentum=0.1, affine=True, track_running_stats=True)
        )
      )
    )
    (proj): Conv2d(24, 3, kernel_size=(1, 1), stride=(1, 1))
  )
  (densify_norms): ModuleList(
    (0): SparseBatchNorm2d(2048, eps=1e-05, momentum=0.1, affine=True, track_running_stats=True)
    (1): SparseBatchNorm2d(1024, eps=1e-05, momentum=0.1, affine=True, track_running_stats=True)
    (2): SparseBatchNorm2d(512, eps=1e-05, momentum=0.1, affine=True, track_running_stats=True)
    (3): SparseBatchNorm2d(256, eps=1e-05, momentum=0.1, affine=True, track_running_stats=True)
  )
  (densify_projs): ModuleList(
    (0): Conv2d(2048, 768, kernel_size=(1, 1), stride=(1, 1))
    (1): Conv2d(1024, 384, kernel_size=(3, 3), stride=(1, 1), padding=(1, 1))
    (2): Conv2d(512, 192, kernel_size=(3, 3), stride=(1, 1), padding=(1, 1))
    (3): Conv2d(256, 96, kernel_size=(3, 3), stride=(1, 1), padding=(1, 1))
  )
  (mask_tokens): ParameterList(
      (0): Parameter containing: [torch.float32 of size 1x2048x1x1 (cuda:0)]
      (1): Parameter containing: [torch.float32 of size 1x1024x1x1 (cuda:0)]
      (2): Parameter containing: [torch.float32 of size 1x512x1x1 (cuda:0)]
      (3): Parameter containing: [torch.float32 of size 1x256x1x1 (cuda:0)]
…
